nist_model.pt (torch, 90404 bytes, 8 tensors)

conv1.weight f4 [10, 1, 5, 5]
0	0xbce80929	-0.02832468
1	0xbe042eab	-0.12908427
2	0xbbe1049b	-0.006867004
3	0xbe6272da	-0.22114125
4	0xbe96a2cd	-0.29421082
5	0x3c5b91e3	0.013401481
6	0xbd77cbf7	-0.06049725
7	0x3e627099	0.22113265
8	0xb978e9a0	-0.00023738155
9	0xbe5fc9bf	-0.21854304
10	0xbd0b20e0	-0.0339669
11	0x3c853a6f	0.016263215
12	0x3e96f4be	0.29483598
13	0x3ce09d9a	0.0274189
14	0xbd3c7c7c	-0.046017155
15	0x3c372224	0.011177573
16	0xbe10054e	-0.14064524
17	0x3e63bea5	0.22240694
18	0x3e30b512	0.17256573
19	0x3d0b20b6	0.033966742
20	0xbe70fcba	-0.23533908
21	0xbe7e8342	-0.24854758
22	0xbe400799	-0.18752898
23	0xbd091293	-0.03346498
24	0x3e44615a	0.19177762
25	0x3ea593fe	0.32339472
26	0xbde55f8b	-0.11199864
27	0xbe07279d	-0.13198705
28	0xbe877cf7	-0.26462528
29	0xbec8c240	-0.392107
30	0x3e4d9b94	0.2007888
31	0xbe311409	-0.17292799
32	0x3d893571	0.06699646
33	0xbe84202a	-0.2580579
34	0x3e3d203f	0.18469332
35	0x3c8f7e71	0.017516347
36	0xbd8d6a1f	-0.069050066
37	0xbed0d781	-0.40789416
38	0xbe46a953	-0.1940053
39	0x3d99b0c7	0.07504421
40	0x3da3ce31	0.07998312
41	0xbd06b3ea	-0.032886423
42	0xbe90daf5	-0.2829205
43	0xbe009406	-0.12556466
44	0x3d3c3711	0.045950953
45	0xbe205772	-0.15658358
46	0xbdd07383	-0.10178282
47	0xbe962e22	-0.29332072
48	0x3d3d32d4	0.04619105
49	0x3d597cbb	0.053097468
50	0x3def5e5c	0.116879195
51	0x3d982af8	0.07430071
52	0x3df4baa1	0.11949659
53	0x3e57c190	0.21069932
54	0x3ea17038	0.3153093
55	0xbd2b3fae	-0.041808777
56	0xbdb09beb	-0.08623489
57	0xbd48a86c	-0.048988745
58	0x3c362ba2	0.011118801
59	0xbe1528f2	-0.145664
60	0xbe5b7f88	-0.21435368
61	0x3d8d10e5	0.06887988
62	0xbdb1336b	-0.08652385
63	0xbe2b38bb	-0.1672086
64	0xbe95291d	-0.2913293
65	0xbeb3372e	-0.35003036
66	0xbdde72fb	-0.108617745
67	0xbdcabd73	-0.09899416
68	0xbe629bc3	-0.22129731
69	0xbdbc97ef	-0.092086665
70	0xbe09572e	-0.13412163
71	0xbec77b12	-0.38961083
72	0xbedf0d7f	-0.43564984
73	0x3de3e97f	0.1112852
74	0x3e1de72e	0.1542022
75	0xbe9257d7	-0.2858264
76	0x3e344c9c	0.17607349
77	0x3e56228c	0.20911616
78	0x3e386864	0.18008572
79	0xbeacc086	-0.33740634
80	0xbe96332e	-0.29335922
81	0xbe0994c3	-0.13435654
82	0xbd4b6ec3	-0.049666177
83	0xbcea1a0f	-0.028576879
84	0xbe84dc31	-0.25949243
85	0xbd76981b	-0.060203653
86	0xbef7da21	-0.48408607
87	0xbea61dff	-0.3244476
88	0xbdbc2ebb	-0.09188601
89	0xbe0ee7d5	-0.13955624
90	0xbe1c0305	-0.15235527
91	0xbcce0727	-0.025149895
92	0xbe8c4aea	-0.27400905
93	0xbdd001a4	-0.10156563
94	0xbee056bc	-0.43816173
95	0xbf068086	-0.5253986
96	0x3e0faf46	0.14031705
97	0x3e659966	0.22421798
98	0x3e6af152	0.22943619
99	0x3e349bce	0.1763756
100	0xbe0ef99d	-0.13962407
101	0xbe9c9b67	-0.30587313
102	0xbe62a856	-0.22134528
103	0xbeccc195	-0.3999144
104	0x3dc7a52f	0.09748303
105	0x3e2cade1	0.16863205
106	0xbdde3b49	-0.108511515
107	0x3e0412bb	0.1289777
108	0x3d80fb4c	0.06297931
109	0xbe900d3a	-0.2813509
110	0x3de56ba8	0.112021744
111	0x3d916b95	0.07100598
112	0x3e9add57	0.30246994
113	0x3e5b70ae	0.21429703
114	0xbf097cd0	-0.53706074
115	0x3a25c60d	0.00063237624
116	0x3e2f31ab	0.1710879
117	0x3c82ffe7	0.015991164
118	0xbe37109d	-0.17877431
119	0xbef062b4	-0.46950305
120	0xbf01d775	-0.50719386
121	0xbe910bb0	-0.2832923
122	0xbefd5376	-0.49477738
123	0xbedff769	-0.43743446
124	0xbcabaad4	-0.02095548
125	0xbdd73ad3	-0.10509267
126	0xbdfdfb85	-0.12401489
127	0xbe691a81	-0.22764017
128	0xbec39b41	-0.38204387
129	0xbe3d8d52	-0.1851094
130	0x3be6cace	0.007043219
131	0x3d1ceb9f	0.038310643
132	0xbd175bdb	-0.036952835
133	0xbe7d83d5	-0.24757321
134	0xbc73b4ca	-0.014874646
135	0xbc97b2b0	-0.018517822
136	0x3dc0e30d	0.094183065
137	0xbe8d6824	-0.27618515
138	0xbe933a00	-0.28755188
139	0x3e199838	0.14999473
140	0x3d427d11	0.047482554
141	0x3b8cbc7a	0.004294929
142	0xbddd9cb3	-0.10820904
143	0xbe41d59d	-0.18929143
144	0x3e7b2a54	0.24527866
145	0xbe08a7b6	-0.13345227
146	0xbebcec6e	-0.36899132
147	0xbdd45c75	-0.10369197
148	0xbd453d7b	-0.048154335
149	0x3e760b67	0.24027787
150	0xbe8ae722	-0.27129465
151	0x3e8294ad	0.25504056
152	0x3dcdaa66	0.100422665
153	0x3d96509c	0.07339594
154	0x3be2f6c6	0.0069263903
155	0x3e867d8a	0.26267654
156	0x3e51f420	0.20503283
157	0x3dc86b4e	0.09786092
158	0xbe105610	-0.1409533
159	0xbd7e20c0	-0.06204295
160	0x3e084c8f	0.13310455
161	0xbd0aa30c	-0.0338469
162	0xbe96b6b8	-0.29436278
163	0xbe4f7a32	-0.20261458
164	0xbd51471b	-0.051093202
165	0xbe41a626	-0.18911037
166	0xbeb4c10a	-0.35303527
167	0x3c8d00b8	0.017212257
168	0x3d05d077	0.03266951
169	0x3df9a692	0.12189974
170	0xbe273a99	-0.16330947
171	0xbe02681d	-0.12735029
172	0x3dfb22dc	0.12262508
173	0x3cd685ba	0.026186813
174	0x3dc92a9a	0.09822579
175	0xbe2f74dc	-0.17134422
176	0xbe307166	-0.17230758
177	0x3db4e3db	0.088325225
178	0xbe3526f3	-0.17690639
179	0x3d175b86	0.036952518
180	0xbde0b7d8	-0.109725654
181	0xbe1d8af3	-0.15385036
182	0xbd36d902	-0.04464055
183	0x3c840b56	0.016118687
184	0xbdc30372	-0.095221415
185	0x3c35cb29	0.0110958
186	0xbea72722	-0.32647043
187	0xbe2062b6	-0.15662655
188	0x3e354f28	0.17705977
189	0xbb661a7a	-0.0035110996
190	0x3e9237e2	0.2855826
191	0xbcf6b5c4	-0.03011597
192	0xbe3c7b38	-0.18406379
193	0xb9acfafc	-0.00032993394
194	0xbcbc7dc2	-0.023009185
195	0x3e5b98a2	0.21444944
196	0x3d695940	0.05696988
197	0xbed70acc	-0.42000425
198	0xbe3ff208	-0.18744671
199	0xbd087676	-0.0333161
200	0xbeb09ab7	-0.34493038
201	0xbe3d8fe8	-0.18511927
202	0x3cef8ad6	0.029241007
203	0x3dc08f6f	0.09402358
204	0x3e9d2c4b	0.30697855
205	0xbdff12a2	-0.12454726
206	0xbe181183	-0.1485043
207	0xbe31c463	-0.17360072
208	0xbead13d5	-0.33804193
209	0x3e5387a3	0.2065721
210	0xbdfb0eeb	-0.12258705
211	0xbdca8d80	-0.0989027
212	0x3dac8449	0.08423669
213	0x3d304481	0.04303408
214	0x3e08f8ca	0.13376155
215	0xbe646d1c	-0.22307247
216	0xbdbec62e	-0.093151435
217	0xbe29ecb2	-0.16594198
218	0x3c83ba60	0.016080081
219	0x3e173bbc	0.1476888
220	0xbe08abdf	-0.13346814
221	0xbe5d4461	-0.21608116
222	0xbea97f6f	-0.33105037
223	0xbe86b847	-0.26312467
224	0xbdaefeb7	-0.08544677
225	0xbe96300e	-0.29333538
226	0xbcbdb02a	-0.02315529
227	0x3e1bef4b	0.15228002
228	0xbc0e9747	-0.0087030595
229	0x3e3c4823	0.18386893
230	0xbea577f6	-0.32318085
231	0xbddbacfd	-0.10726354
232	0x3d605073	0.054764222
233	0x3e6f0636	0.23342213
234	0x3d970d77	0.07375615
235	0xbe8dee10	-0.2772069
236	0xbedf4a6d	-0.4361147
237	0xbea3600e	-0.3190922
238	0x3d23020f	0.039796885
239	0xbe2ee7eb	-0.17080657
240	0x3d7bd1bd	0.06147932
241	0xbd185ca9	-0.037197743
242	0xbef29a8d	-0.47383538
243	0xbef859d0	-0.48506021
244	0xbec1e47f	-0.3786964
245	0xbe4fbcb7	-0.20286833
246	0x3e5ca24e	0.2154629
247	0x3df3ffcd	0.119140245
248	0x3e3904a3	0.18068175
249	0xbe891e20	-0.26780796

conv1.bias f4 [10]
0	0xbfbb26da	-1.4621232
1	0xbfa67279	-1.3003684
2	0xbf7dbc14	-0.9911511
3	0xbfca6e84	-1.5814977
4	0xbfc51a94	-1.5398736
5	0xbfaf4d3d	-1.3695446
6	0xbfdffde2	-1.7499354
7	0xbfa2df1a	-1.2724335
8	0xbfad4be5	-1.3538786
9	0xbf5bbd5a	-0.858358

conv2.weight f4 [20, 10, 5, 5]
0	0xbea6c2de	-0.32570547
1	0xbe5a0f3e	-0.21294877
2	0xbe142059	-0.14465465
3	0xbee8dc91	-0.4548078
4	0xbd399d0c	-0.045315787
5	0xbec55fa3	-0.38549528
6	0xbe791610	-0.24324822
7	0xbca3e36e	-0.020005908
8	0xbd86571c	-0.065595835
9	0xbe51778f	-0.20455764
10	0x3ebc4350	0.36770105
11	0xbd2cc07a	-0.042175747
12	0x3e2edd99	0.1707672
13	0x3ea38154	0.31934607
14	0x3d3ec8ce	0.04657822
15	0x3eb76c59	0.3582485
16	0x3e8fa3d4	0.28054678
17	0x3dc70dad	0.09719405
18	0x3dfb963e	0.12284516
19	0xbb8b041c	-0.0042424332
20	0x3eb2bf3a	0.3491152
21	0xbdd0cac3	-0.10194924
22	0x3cdbf3a6	0.026849579
23	0xbd5ad2a4	-0.05342354
24	0xbe927600	-0.28605652
25	0x3f29f79e	0.6639346
26	0x3ed14f59	0.4088085
27	0x3d72acc1	0.059246782
28	0x3ec14cf7	0.37754032
29	0x3e2a21aa	0.16614404
30	0x3e8df57a	0.27726346
31	0xbdbf79d7	-0.09349411
32	0x3e5fd181	0.21857263
33	0x3e8a40a8	0.27002454
34	0x3e26ebf7	0.16300951
35	0xbf03960f	-0.51400846
36	0xbf3ddd38	-0.7416568
37	0xbf5b3863	-0.85632914
38	0x3ddf0afd	0.10890768
39	0x3e949ac0	0.29024315
40	0xbe9c9d2f	-0.30588672
41	0xbf06152b	-0.5237605
42	0xbfa4b7c1	-1.2868577
43	0xbfa87f61	-1.3163873
44	0xbefa513b	-0.488901
45	0x3e6d6db6	0.23186383
46	0x3edd4826	0.43219107
47	0x3d9b6ebb	0.075894795
48	0xbe5a3e0b	-0.2131273
49	0x3d652f42	0.05595327
50	0xbe3e04b0	-0.18556476
51	0x3e228fb1	0.15875126
52	0xbd656c44	-0.056011453
53	0x3db68b49	0.08913285
54	0x3f2867d4	0.6578343
55	0xbcf6af20	-0.030112803
56	0x3e59e1d0	0.21277547
57	0x3e662776	0.2247599
58	0x3e1bc8d7	0.15213333
59	0x3c65b16d	0.014019352
60	0xbeff8996	-0.49909657
61	0x3b1d1c0c	0.0023973016
62	0x3eb4d00e	0.35314983
63	0x3d7982c3	0.06091572
64	0xbdaf4561	-0.08558155
65	0xbdb25120	-0.087068796
66	0xbd00346a	-0.031299986
67	0x3e4bc444	0.19899088
68	0xbdfc6d3a	-0.12325521
69	0x3dc90cfe	0.09816931
70	0x3e5f9c2f	0.21836923
71	0x3e790485	0.2431813
72	0xbdeeb61d	-0.11655829
73	0x3d9ca812	0.07649244
74	0x3ebcfd8d	0.36912194
75	0x3deed888	0.11662394
76	0x3e880f5a	0.26574212
77	0x3e24ee8c	0.16106623
78	0x3df76536	0.12079851
79	0xbeb341cb	-0.35011134
80	0x3e8cb11c	0.27478874
81	0x3eb7fbd6	0.35934323
82	0x3eb50d29	0.35361603
83	0x3ecb01d0	0.3964982
84	0xbed48d73	-0.41514167
85	0x3e98f51b	0.298745
86	0xbd6069c1	-0.054788355
87	0x3ec6952a	0.38785678
88	0x3f0657c4	0.5247767
89	0x3e94d672	0.2906986
90	0xbee4ff6c	-0.4472612
91	0xbdfafec4	-0.12255624
92	0x3ca809ab	0.020512423
93	0x3f27ae75	0.65500575
94	0x3e8b3755	0.27190652
95	0xbf63cae3	-0.88981456
96	0xbf1160e7	-0.56788486
97	0xbe4a4893	-0.19754247
98	0x3de44024	0.11145046
99	0xbe5aff40	-0.21386433
100	0x3e553510	0.20821023
101	0xbdc84402	-0.097785965
102	0x3d7c44cc	0.061589047
103	0xba8661a8	-0.0010252493
104	0x3e3180aa	0.17334238
105	0x3e5e9b05	0.21738823
106	0xbbe3134c	-0.0069297906
107	0xba4e8b08	-0.00078789936
108	0xbea16b05	-0.31526962
109	0x3f29b709	0.66294914
110	0x3eba8377	0.36428425
111	0x3e2bcc91	0.16777255
112	0x3e3f732b	0.18696277
113	0xbe1e1282	-0.15436748
114	0x3e4b0ac3	0.19828324
115	0x3c3f9312	0.011692779
116	0xbe33be4c	-0.17553061
117	0xbf29e1b1	-0.6636
118	0xbe8074e5	-0.25089183
119	0x3b6120c2	0.00343518
120	0x3e1d494a	0.15359989
121	0x3e9ed76b	0.31023726
122	0x3e797f5b	0.24364989
123	0xbe9a38f7	-0.30121586
124	0x3e1d48b3	0.15359764
125	0xbed3f926	-0.41401023
126	0xbd7e524e	-0.06209021
127	0x3da4e54f	0.0805155
128	0x3ee12102	0.43970495
129	0xbe1107ec	-0.14163178
130	0xbdfe7ff9	-0.124267526
131	0xbcf53ec5	-0.029937157
132	0xbf16d455	-0.5891774
133	0xbec796e0	-0.38982296
134	0x3df56642	0.11982395
135	0x3e0d8364	0.13819653
136	0xbe84978f	-0.2589688
137	0x3db98399	0.090583034
138	0x3d9a6a73	0.07539835
139	0xbc8e8a9c	-0.017400078
140	0xbeb145fb	-0.34623703
141	0xbeec3fec	-0.4614252
142	0xbe8184ba	-0.25296575
143	0xbef33872	-0.47504002
144	0xbe9f75d8	-0.31144595
145	0xbe65791b	-0.2240948
146	0xbe8d69af	-0.27619693
147	0xbd989bc1	-0.07451583
148	0xbedd9895	-0.43280473
149	0xbf0328fa	-0.512344
150	0xbe25ad85	-0.16179474
151	0xbc31b91a	-0.010847354
152	0x3ee4974c	0.4464668
153	0x3e332a3a	0.17496577
154	0xbe1e898d	-0.15482159
155	0xbe0db8ef	-0.13840078
156	0x3d954d3a	0.072901204
157	0x3efe6063	0.49682912
158	0x3b890d7c	0.0041825157
159	0x3ea2748f	0.31729552
160	0xbdd0d781	-0.10197354
161	0xbe802cc1	-0.25034145
162	0x3da6a55a	0.08137007
163	0xbe58a607	-0.21157084
164	0xbe1fc4ca	-0.15602413
165	0xbeda5f27	-0.4265072
166	0xbda84347	-0.08215957
167	0x3e404fcb	0.18780439
168	0xbd64b1d2	-0.055833645
169	0x3dbdc213	0.09265532
170	0xbdb9a691	-0.09064973
171	0x3e990748	0.29888368
172	0xbd206975	-0.03916307
173	0x3e8e1c71	0.27756074
174	0x3e8ce899	0.27521208
175	0x3cc66906	0.024220001
176	0xbe54c22d	-0.20777197
177	0xbebcb5ba	-0.36857396
178	0x3e1d7989	0.15378393
179	0xbf039a8f	-0.5140771
180	0xbebe11b3	-0.37122878
181	0xbf07fef8	-0.53123426
182	0xbf0f0d6d	-0.5587986
183	0xbe3ba281	-0.18323709
184	0x3d52b0eb	0.051438253
185	0xbdf961ae	-0.12176834
186	0xbeb61d6b	-0.3556932
187	0xbe357530	-0.17720485
188	0x3e503a7c	0.2033481
189	0x3d99ae89	0.07503993
190	0x3e3bcad8	0.18339097
191	0x3ea9424b	0.3305839
192	0xbe13fb5a	-0.14451352
193	0x3eaa2834	0.33233798
194	0xbc82c006	-0.015960705
195	0xbebe7847	-0.3720114
196	0x3e1ef676	0.15523705
197	0xbec91d15	-0.3928
198	0xbc95ca52	-0.01828495
199	0x3ea6eb8d	0.32601586
200	0xbdee1696	-0.11625402
201	0xbe07295a	-0.13199368
202	0x3df12a58	0.117756546
203	0x3eadb5c9	0.33927754
204	0x3f4895b5	0.78353435
205	0xbed7129e	-0.4200639
206	0xbcc72bb2	-0.024312828
207	0x3e40d8d4	0.18832713
208	0xbe37d538	-0.1795243
209	0xbe91878b	-0.28423724
210	0xbf8ddfb6	-1.1083896
211	0xbee8cf7c	-0.45470798
212	0xbf1741bf	-0.59084696
213	0xbf7ad325	-0.9797843
214	0xbf56b189	-0.8386465
215	0xbed85362	-0.42251116
216	0xbe64b7e2	-0.2233577
217	0xbe998c87	-0.29990026
218	0xbd1c21a8	-0.038118035
219	0xbec0714c	-0.3758644
220	0x3c1ab71c	0.009443071
221	0x3dde3cea	0.10851462
222	0xbe2a6c6a	-0.16642919
223	0xbde1b1b6	-0.11020224
224	0xbf0e1320	-0.5549793
225	0xbec027b9	-0.37530306
226	0x3de35faa	0.11102231
227	0x3e46ed54	0.19426471
228	0x3e2abc68	0.16673434
229	0x3f166229	0.5874353
230	0x3d9f1f2b	0.07769617
231	0x3e52f93d	0.2060289
232	0x3f15d57e	0.5852889
233	0x3eee3345	0.4652349
234	0xbcca6628	-0.024706915
235	0xbea1d04a	-0.31604224
236	0x3ea9dc41	0.33175853
237	0x3e86745a	0.26260644
238	0xbd98dba3	-0.074637674
239	0xbeaf08c5	-0.34186378
240	0xbe979c42	-0.29611403
241	0x3ef74e3a	0.4830187
242	0xbe7fdac1	-0.24985792
243	0x3d75e272	0.06003041
244	0xbe8a9bef	-0.27072093
245	0xbe7bd1d0	-0.24591756
246	0xbd5386bc	-0.051642165
247	0x3e07a6be	0.13247201
248	0x3e865333	0.2623535
249	0xbcb19deb	-0.021681746
250	0xbe7df122	-0.24799016
251	0xbddc5575	-0.10758487
252	0xbe4832f2	-0.19550684
253	0xbdc5be3c	-0.09655425
254	0xbdd8ccdf	-0.10585951
255	0xbed5972b	-0.41716895

conv2.bias f4 [20]
0	0xbde545c4	-0.11194947
1	0xbef89228	-0.48549008
2	0xbe6e4124	-0.23267037
3	0x3e8d4ee8	0.27599263
4	0xbe0d2678	-0.13784206
5	0xbd06f576	-0.032948934
6	0xbf08acb2	-0.5338851
7	0xbe0aba47	-0.13547622
8	0xbe874b98	-0.2642486
9	0xbe5befc5	-0.21478184
10	0xbf1ddc74	-0.6166451
11	0xbd611417	-0.0549508
12	0x3ece761d	0.40324488
13	0xbef65c11	-0.48117116
14	0xbd9ce9d0	-0.07661784
15	0x3e029b5b	0.12754576
16	0xbdb0a259	-0.08624715
17	0xbf3b714d	-0.7321976
18	0xbd675536	-0.056477748
19	0xbd46a65b	-0.048498493

fc1.weight f4 [50, 320]
0	0x3e91a8e3	0.28449163
1	0xbeabcb4e	-0.33553547
2	0xbe958ede	-0.29210562
3	0xbeb17711	-0.34661153
4	0x3e8f309c	0.27966774
5	0xbe16aebe	-0.14715096
6	0xbe035bc0	-0.12827969
7	0xbf21c5b5	-0.631923
8	0x3ec76c21	0.38949683
9	0x3e3c16c5	0.18368061
10	0x3eadcd90	0.33945894
11	0x3e16d6a4	0.14730316
12	0xbf061521	-0.5237599
13	0xbef8a13c	-0.48560512
14	0xbd86d71b	-0.06583997
15	0x3f09a665	0.5376952
16	0xbe4f0815	-0.20217927
17	0xbdc8d3c5	-0.09806017
18	0xbdd749dc	-0.105121344
19	0xbe94f27a	-0.29091245
20	0x3e0fac69	0.14030613
21	0x3e2dc284	0.16968733
22	0x3e9a720f	0.30165145
23	0xbe2f0ec9	-0.17095484
24	0x3eaf3524	0.3422023
25	0x3de95fca	0.113952234
26	0xbf0f7c9c	-0.56049514
27	0xbe71b80f	-0.23605369
28	0xbd6030b3	-0.054733943
29	0xbe0d9476	-0.13826165
30	0xbee26c06	-0.4422304
31	0xbca42740	-0.020038247
32	0x3f094713	0.53624076
33	0xbc7b07ac	-0.015321653
34	0xbe476926	-0.19473705
35	0x3e67e816	0.22647128
36	0x3ec31c96	0.38107747
37	0x3ec90d37	0.39267895
38	0x3e1dc8e8	0.15408671
39	0x3df3ed48	0.11910492
40	0x3e2ea322	0.17054418
41	0xbd3a83bc	-0.045535788
42	0x3e765c49	0.24058641
43	0x3e9b6ffc	0.30358875
44	0xbe032990	-0.12808824
45	0xbe198a88	-0.14994252
46	0x3e75860d	0.23976918
47	0xbc013416	-0.007885953
48	0xbd16bacf	-0.03679925
49	0xbe88e060	-0.26733685
50	0x3e84054f	0.257853
51	0x3e0f627a	0.1400241
52	0xbfbae13b	-1.4599985
53	0x3da359f9	0.07976145
54	0x3e72d02b	0.23712222
55	0x3ec11f35	0.37719122
56	0x3e324a84	0.17411238
57	0xbd64038b	-0.05566744
58	0xbf1d76c6	-0.6150936
59	0xbfd59654	-1.6686502
60	0x3e415bf9	0.18882741
61	0x3f01c597	0.50692123
62	0xbe194bf7	-0.14970385
63	0xbf66bf9d	-0.9013613
64	0x3de55824	0.11198452
65	0x3d637c7d	0.055538643
66	0x3dcb4036	0.09924357
67	0x3d98295b	0.07429763
68	0x3da8c60b	0.08240899
69	0x3dc52f84	0.096282035
70	0x3dbca7a1	0.0921166
71	0x3dc5dcd8	0.09661263
72	0x3d8d3302	0.068944946
73	0x3ddd9852	0.108200684
74	0x3dc5c9f2	0.09657659
75	0x3ca7de66	0.02049179
76	0x3d8b82e1	0.068120725
77	0x3d9df61c	0.07712957
78	0x3da6dc09	0.08147437
79	0x3d6f3526	0.058400296
80	0x3c06ec4c	0.0082350485
81	0xbde5c8d5	-0.11219946
82	0x3db9b4c9	0.09067685
83	0x3bf4102c	0.007448217
84	0x3d976cfa	0.073938325
85	0xbde36208	-0.11102682
86	0xbda38eb1	-0.079862006
87	0xbd7be88c	-0.06150107
88	0x3d2fb569	0.042897616
89	0xbd20c940	-0.039254427
90	0x3d932526	0.0718482
91	0x3d029ab6	0.031885825
92	0xbddc4a87	-0.107564025
93	0xbc51b760	-0.012800068
94	0xbda9afc3	-0.08285477
95	0x3c00c03f	0.007858335
96	0x3f07d8c0	0.5306511
97	0xbe2f4186	-0.17114839
98	0xbe3e8601	-0.18605806
99	0xbe615b80	-0.2200756
100	0x3ee55498	0.44791102
101	0xbc2bd915	-0.010488768
102	0xbf00b5a1	-0.50277144
103	0xbf2c78d7	-0.67371887
104	0xbee1e132	-0.44117123
105	0x3cb44632	0.022006128
106	0xb7bd9c20	-2.2603257e-05
107	0xbe4251cb	-0.18976514
108	0x3eb6b5c4	0.3568555
109	0x3ec44a6d	0.38338032
110	0x3e82a4b4	0.25516284
111	0xbf06ed70	-0.5270605
112	0x3e0467d7	0.12930237
113	0x3d8ab4da	0.06772776
114	0x3c41afbb	0.011821683
115	0x3d9d8a51	0.076923974
116	0x3dc4b96a	0.096056774
117	0x3de5c9c7	0.112201266
118	0x3dafc3a4	0.08582237
119	0x3d9c1c05	0.07622532
120	0x3d8391ae	0.064242706
121	0xbcae1ef3	-0.021254992
122	0x3d6fa919	0.058510873
123	0x3debc789	0.11512668
124	0x3d4fa84a	0.050697602
125	0x3e00d82a	0.1258246
126	0x3dc6475c	0.096815795
127	0x3d8787c3	0.06617691
128	0xbe043eb6	-0.12914547
129	0xbe25e4d9	-0.1620058
130	0xbe1aa436	-0.15101704
131	0xbe8bbc23	-0.27291974
132	0xbeb1d5af	-0.3473334
133	0xbe07c5b7	-0.13259016
134	0xbd18300c	-0.037155196
135	0xbe8850b0	-0.2662406
136	0xbe04f910	-0.12985635
137	0x3ebf1b10	0.37325335
138	0xbe0896d4	-0.13338786
139	0xbdc07f28	-0.09399253
140	0xbe14577f	-0.14486502
141	0x3f487489	0.7830282
142	0x3e0b69d6	0.13614592
143	0x3d9c4393	0.07630076
144	0x3dda52cd	0.10660324
145	0x3d9104ad	0.0708097
146	0x3db2f7a4	0.0873864
147	0xbd9e34ae	-0.077248916
148	0xbda7913c	-0.08181998
149	0xbd7a23f5	-0.061069448
150	0x3d9685d5	0.07349745
151	0xbd9dcf05	-0.077055015
152	0x3d5a9e46	0.053373598
153	0x3ddf0b15	0.108907856
154	0x3d119c78	0.03554961
155	0x3e0e4b43	0.13895898
156	0x3d919836	0.0710911
157	0x3cc15c2a	0.023603518
158	0x3de9ec39	0.11422009
159	0x3de58422	0.11206843
160	0x3cd1b7af	0.025600282
161	0xbe81a31d	-0.25319758
162	0x3ed2a0e2	0.4113837
163	0xbdf30fef	-0.118682735
164	0x3da74d35	0.08169023
165	0x3e834559	0.25638846
166	0x3f0daad7	0.55338806
167	0xbed362b8	-0.41286254
168	0x3e38c397	0.18043362
169	0xbc0deeb4	-0.008662868
170	0x3e1522da	0.14564076
171	0xbeb1320e	-0.346085
172	0xbd9eca9c	-0.077534884
173	0xbedfd50c	-0.4371723
174	0xbed15870	-0.40887785
175	0xbefdd0f6	-0.49573487
176	0xbd86b9b5	-0.065783896
177	0xbd119617	-0.035543527
178	0xbe10bd6b	-0.14134757
179	0xbd82d986	-0.063891456
180	0x3bf2fd44	0.0074154455
181	0xbc2bd3e0	-0.010487527
182	0xbd81d16f	-0.063387744
183	0x3cf41cc1	0.029798867
184	0xbc4d8e5a	-0.012546146
185	0xbd642126	-0.055695675
186	0xbda319de	-0.07963918
187	0x3cccddc0	0.025008082
188	0xbdc7a78d	-0.09748755
189	0xbc256621	-0.01009515
190	0xbdaf1c98	-0.08550376
191	0x3d647b10	0.055781424
192	0x3eac3407	0.33633444
193	0xbe3f3539	-0.18672647
194	0xbe6cad29	-0.2311293
195	0xbf0e7c43	-0.5565836
196	0xbe3a037e	-0.18165395
197	0xbfd7e549	-1.6866847
198	0xbed0dc3a	-0.4079302
199	0xbe16501e	-0.14679
200	0x3e0615ec	0.130943
201	0xbecbeab8	-0.39827514
202	0x3e3873ab	0.18012874
203	0x3dfb0cd1	0.12258304
204	0xbe02c176	-0.12769112
205	0xbe2b8a59	-0.16751994
206	0x3f08f971	0.5350562
207	0x3eb900db	0.36133465
208	0xbf334303	-0.70024127
209	0xbe2e6f90	-0.17034745
210	0xbd00c362	-0.03143633
211	0xbd4c9968	-0.049950987
212	0xbde4a9b1	-0.111651786
213	0x3dec4d61	0.11538196
214	0xbda1b287	-0.078953795
215	0x3e5c4c44	0.21513468
216	0xbe29acd6	-0.16569838
217	0x3e6332d4	0.22187358
218	0xbf003db5	-0.5009416
219	0xbdb71605	-0.08939747
220	0xbd7c13d2	-0.06154234
221	0xbeac87ee	-0.33697456
222	0x3e45bab6	0.19309506
223	0x3e17156e	0.14754269
224	0xbc038001	-0.008026124
225	0xbd102c23	-0.035198342
226	0xbcd80b98	-0.026372716
227	0x3da3bcf0	0.07995021
228	0xbd6bab5e	-0.057536475
229	0xbd349cb4	-0.044094756
230	0xbc6d4689	-0.014482149
231	0x3dcd9a25	0.10039166
232	0x3dd20cbe	0.10256337
233	0x3b12a431	0.0022375698
234	0x3d8304aa	0.06397374
235	0x3db2e310	0.08734715
236	0x3d0fd778	0.035117596
237	0x3bc78a67	0.006089497
238	0x3d32e797	0.043677893
239	0x3d1d8164	0.038453475
240	0x3f05e8d3	0.52308387
241	0x3da532a5	0.080663
242	0xbe38c51f	-0.18043946
243	0xbe82cd55	-0.2554728
244	0xbe81e2cd	-0.25368348
245	0xbeb17c92	-0.34665352
246	0x3e41e907	0.18936549
247	0xbe993d96	-0.299298
248	0xbf78d48d	-0.97199327
249	0xbec95277	-0.39320728
250	0x3e70f63c	0.23531431
251	0x3e3813e3	0.17976336
252	0xbe2eb426	-0.17060909
253	0x3e30b5e6	0.17256889
254	0x3f07bf73	0.53026503
255	0x3dce1c0e	0.10063945

fc1.bias f4 [50]
0	0x3e4c4cf2	0.19951227
1	0x3e9b9e2b	0.3039411
2	0x3d126dcc	0.03574924
3	0xbe8bf34a	-0.27334052
4	0x3e5f066e	0.21779796
5	0xbd8da447	-0.06916099
6	0xbf13fbca	-0.57806075
7	0xbf29a4dd	-0.66267186
8	0x3e360921	0.1777692
9	0x3e8ff8fd	0.2811965
10	0xbeabb283	-0.3353463
11	0xbf0e6605	-0.5562442
12	0x3e783cff	0.24242018
13	0x3ed0b5cc	0.407637
14	0x3d5af02f	0.053451713
15	0xbec08949	-0.3760474
16	0xbca4044f	-0.020021586
17	0xbe2d5ee1	-0.16930725
18	0x3cf3afba	0.029746879
19	0xbefb0dd5	-0.4903399
20	0xbe17094d	-0.14749642
21	0xbe1a827c	-0.15088838
22	0xbe6533da	-0.22383061
23	0x3e876d53	0.26450595
24	0xbf064623	-0.5245077
25	0xbf3d1604	-0.7386172
26	0x3eb2bf0c	0.34911382
27	0x3dbaabe2	0.09114815
28	0xbc061e1a	-0.008185888
29	0xbe8e9742	-0.27849776
30	0x3ec0c6e8	0.37651753
31	0x3d814c9c	0.0631344
32	0x3df08930	0.117449164
33	0xbd25a02c	-0.040435955
34	0xbda76078	-0.08172697
35	0x3e57ec5d	0.21086259
36	0x3e440ac2	0.19144729
37	0xbc365786	-0.011129266
38	0x3e4f3326	0.20234355
39	0xbf478478	-0.77936506
40	0xbc48ad9a	-0.012248421
41	0x3e1cebe7	0.15324365
42	0xbf92642c	-1.143682
43	0x3dad3394	0.08457103
44	0xbe2a3e2e	-0.16625282
45	0xbe96d980	-0.29462814
46	0x3e9e3785	0.30901733
47	0xbd869940	-0.06572199
48	0xbef7d301	-0.4840317
49	0xbdeadde6	-0.11468105

fc2.weight f4 [10, 50]
0	0xbea7d723	-0.32781324
1	0x3e222da2	0.1583772
2	0xbd8aba50	-0.067738175
3	0xbea0cd64	-0.314067
4	0xbe57b502	-0.21065143
5	0x3da01099	0.07815666
6	0xbe0d85c6	-0.13820562
7	0xbe8bdd79	-0.27317408
8	0x3e31b98e	0.1735594
9	0x3e4ce8de	0.20010707
10	0xbe470ff7	-0.19439684
11	0x3e26c94e	0.16287729
12	0x3dcd417c	0.10022256
13	0xbe5393ff	-0.20661925
14	0xbe141f24	-0.14465004
15	0xbf13b10b	-0.5769202
16	0xbecd3df8	-0.4008634
17	0x3e48dc9d	0.19615407
18	0xbd867b17	-0.06566446
19	0xbee201ae	-0.44141906
20	0xbe8908dc	-0.26764572
21	0xbda8a531	-0.08234633
22	0xbe8c191f	-0.27362916
23	0xbe760ec2	-0.24029067
24	0xbceb2091	-0.028702052
25	0xbd763ba5	-0.060115475
26	0xbe16b153	-0.14716081
27	0xbf2eda87	-0.68302196
28	0xbdbcdcf6	-0.092218325
29	0xbe51f54a	-0.20503727
30	0xbe967a85	-0.2939035
31	0xbe0624a8	-0.13099921
32	0xbe81a1cb	-0.2531875
33	0x3e8a6761	0.27031997
34	0x3e56427f	0.20923804
35	0x3e70dd7f	0.23521994
36	0x3ebcaf90	0.36852694
37	0xbe8966fd	-0.26836386
38	0xbedc58dc	-0.43036544
39	0x3d6dc7d4	0.0580519
40	0xbe36ede8	-0.17864192
41	0xbe91a1a4	-0.28443635
42	0xbb7ce00d	-0.0038585693
43	0x3e2e969b	0.17049639
44	0xbcf6ad16	-0.03011183
45	0xbf160f82	-0.58617413
46	0xbea06111	-0.31324056
47	0xbeb89fed	-0.36059514
48	0xbed7e8a6	-0.42169684
49	0xbdab721c	-0.08371374
50	0x3e748653	0.23879366
51	0xbeae8b82	-0.3409081
52	0x3d9936da	0.07481165
53	0xbe0238cf	-0.12716983
54	0xbeca53ed	-0.39517155
55	0xbf29c942	-0.6632272
56	0xbe98bb5d	-0.29830447
57	0xbe9d535e	-0.30727667
58	0xbeffaca5	-0.49936405
59	0xbf222816	-0.63342416
60	0xbe8ff3d7	-0.28115723
61	0xbe9f2b03	-0.31087503
62	0xbf139f31	-0.5766478
63	0x3e8f5cec	0.2800058
64	0x3ddee71b	0.108839236
65	0x3d918349	0.07105119
66	0xbe7de53a	-0.24794474
67	0xbe8a0302	-0.2695542
68	0xbdfefcb2	-0.124505416
69	0x3e9ce614	0.30644286
70	0xbeac5042	-0.33654982
71	0xbeb1d9a2	-0.34736353
72	0xbd2f02ee	-0.042727403
73	0x3e1bedae	0.15227386
74	0xbe1aa55f	-0.15102147
75	0xbe80e456	-0.25174206
76	0xbe877845	-0.26458946
77	0x3e24ed1e	0.16106078
78	0xbd1b1872	-0.03786511
79	0xbde36ae5	-0.11104373
80	0xbec18304	-0.3779527
81	0xbe7147e7	-0.23562585
82	0xbeb9310c	-0.36170232
83	0xbdb60e34	-0.08889428
84	0xbe8bfb7e	-0.2734031
85	0xbed7b5c2	-0.42130858
86	0xbf48d6e0	-0.78452873
87	0xbc9e3d48	-0.01931633
88	0x3e503ab1	0.20334889
89	0xbea13e6c	-0.31492937
90	0x3e8670ba	0.2625788
91	0xbe40fc8c	-0.18846339
92	0xbea538ae	-0.32269806
93	0xbf3c483f	-0.7354774
94	0xbd90672b	-0.07050928
95	0xbe6fd2bd	-0.23420234
96	0x3e6db1c0	0.23212337
97	0x3e7ced74	0.24699956
98	0xbecdbab3	-0.40181503
99	0xbe18ceba	-0.1492261
100	0x3e903b99	0.2817047
101	0x3e266774	0.16250402
102	0xbe8d7e96	-0.2763564
103	0xbd92659f	-0.07148289
104	0xbe390e76	-0.18071923
105	0xbe95c1ba	-0.29249364
106	0xbeb3e13b	-0.35132775
107	0x3e0320d9	0.12805499
108	0xbe3a1048	-0.18170273
109	0xbe95679d	-0.29180613
110	0x3e3ae00e	0.18249533
111	0x3e2f3c8b	0.17112939
112	0xbe5186cd	-0.20461579
113	0xbd01dfcc	-0.03170757
114	0xbead629a	-0.3386429
115	0xbe6507a2	-0.22366193
116	0x3db5e5cd	0.08881722
117	0x3e285e91	0.16442324
118	0xbe284283	-0.16431622
119	0xbe1989c4	-0.1499396
120	0xbe5833bd	-0.21113487
121	0xbe029acc	-0.12754363
122	0x3e363658	0.17794168
123	0xbe8b53dc	-0.27212417
124	0xbe288fd3	-0.16461115
125	0x3e1f843f	0.15577792
126	0x3e0cfb9f	0.13767861
127	0xbeb54784	-0.35406125
128	0xbe8c8608	-0.27446008
129	0xbe10cfc8	-0.14141762
130	0xbde60c89	-0.1123286
131	0xbe52ed76	-0.20598397
132	0xbd929fd6	-0.071593925
133	0x3e1f5d5b	0.15562956
134	0x3e3862d4	0.1800645
135	0xbe60fa51	-0.21970488
136	0xbd873273	-0.06601419
137	0x3e3b23e9	0.18275417
138	0x3e383b25	0.17991312
139	0xbe6ec6d3	-0.23318033
140	0x3d49023c	0.049074396
141	0xbcdc8505	-0.026918897
142	0x3c413b33	0.011793899
143	0x3d3fa2ba	0.046786048
144	0x3e23e4c6	0.16005239
145	0xbcb696f2	-0.022288773
146	0xbd987910	-0.07444966
147	0x3e50feec	0.20409745
148	0xbdbb2998	-0.09138793
149	0x3e040ca4	0.12895447
150	0x3d95ce02	0.073146835
151	0xbd65a8f8	-0.056069344
152	0xbd0f90e5	-0.03505029
153	0x3e099e41	0.13439275
154	0x3e766909	0.24063505
155	0xbe4eff3d	-0.20214553
156	0x3df82a4a	0.12117441
157	0xbdc6acd6	-0.097009346
158	0xbdddc6e2	-0.108289495
159	0xbe744da3	-0.23857741
160	0x3e12cb24	0.14335304
161	0xbe8f017a	-0.27930814
162	0x3e0b80c9	0.13623346
163	0xbefcb7f1	-0.49359086
164	0xbe863f5e	-0.2622022
165	0xbd76dd52	-0.06026966
166	0xbd6d3657	-0.05791315
167	0xbe274577	-0.16335092
168	0xbe29eb14	-0.16593581
169	0xbe7cd4f4	-0.2469061
170	0xbe5a71b4	-0.21332437
171	0xbe80e176	-0.25172013
172	0x3e182c8d	0.14860745
173	0xbe0cbfc9	-0.13745035
174	0x3e979842	0.2960835
175	0xbc9f9652	-0.019480858
176	0x3dbf4114	0.093385845
177	0xbe882a14	-0.26594603
178	0xbdfd2748	-0.12361008
179	0x3e1b22ba	0.15149966
180	0xbe1d4495	-0.15358193
181	0xbf19dbd8	-0.6010108
182	0xbe531e70	-0.2061708
183	0xbb584e4c	-0.0033005653
184	0x3d29b5bd	0.041433085
185	0xbe0e3748	-0.13888276
186	0xbe18e410	-0.14930749
187	0x3d7f9458	0.06239733
188	0x3e4be7b1	0.19912602
189	0xbcecbb66	-0.028897952
190	0x3caac1fb	0.02084445
191	0xbe1345c7	-0.14382087
192	0xbe5ff049	-0.21869005
193	0x3e2ef73e	0.17086503
194	0x3e14a071	0.14514329
195	0xbecd27ce	-0.4006943
196	0xbe91af9c	-0.28454292
197	0xbe012150	-0.12610364
198	0x3e693813	0.22775297
199	0x3e55bb55	0.20872243
200	0xbe3d54fe	-0.18489453
201	0xbe8b6914	-0.27228606
202	0xbdd9e57d	-0.106394745
203	0x3d5fbaa3	0.05462135
204	0x3db696b4	0.08915463
205	0xbe9f4ac1	-0.3111172
206	0xb9490038	-0.00019168935
207	0x3d94cea1	0.07265974
208	0xbe67a729	-0.2262236
209	0xbc3d017d	-0.011535999
210	0x3e7b7d53	0.24559526
211	0x3e547e07	0.207512
212	0xbe75f71f	-0.2402005
213	0x3e5a5d59	0.21324672
214	0x3d129ff8	0.03579709
215	0xbeb0c810	-0.34527636
216	0xbe9a1e44	-0.30101216
217	0x3c7baddc	0.0153612755
218	0x3e9e3466	0.30899352
219	0xbe2b61f8	-0.16736591
220	0x3e37e3a6	0.17957935
221	0xbe533c33	-0.20628433
222	0xbe784684	-0.2424565
223	0x3e28606b	0.1644303
224	0xbe17d001	-0.14825441
225	0x3d76115b	0.060075145
226	0x3cd89ba2	0.026441399
227	0x3e53537f	0.2063732
228	0xbc02acb3	-0.007975745
229	0x3e0cac24	0.13737541
230	0x3e1f482f	0.1555488
231	0xbd82c5d8	-0.06385392
232	0x3e7a0997	0.2441772
233	0xbe0e5609	-0.13900007
234	0xbe18b124	-0.14911324
235	0x3e482ed4	0.19549114
236	0xbe67f394	-0.22651511
237	0x3c75e29b	0.01500764
238	0xbe0eb6d5	-0.13936932
239	0xbe5582a9	-0.20850624
240	0x3cc3bbf8	0.023893341
241	0x3e187297	0.14887463
242	0xbe47de8c	-0.19518489
243	0xbea4e536	-0.32206124
244	0xbe41dd3f	-0.18932055
245	0x3e341406	0.17585763
246	0xbce5ab53	-0.028035795
247	0xbda12c91	-0.078698285
248	0xbddcd7cf	-0.1078335
249	0x3de95de4	0.11394861
250	0xbeace6af	-0.33769748
251	0xbe0b8fa3	-0.13629012
252	0x3e8be7be	0.27325243
253	0xbd2a0531	-0.041508857
254	0x3dff060b	0.124523245
255	0x3e197e39	0.14989556

fc2.bias f4 [10]
0	0x3e866d6c	0.26255357
1	0x3f7ba1f1	0.9829398
2	0x3d9a8022	0.07543971
3	0xbe616210	-0.22010064
4	0xbf169dd3	-0.5883457
5	0xbe6f352c	-0.23360127
6	0x3d4f50c4	0.050614133
7	0xbe13bf39	-0.14428414
8	0x3e4c4039	0.19946374
9	0xbef785ea	-0.48344356
